…
ecute_reply.started":"2024-06-24T13:51:56.015014Z","shell.execute_reply":"2024-06-24T13:52:03.671282Z"},"trusted":true,"id":"ny1GsN0_6-zF","outputId":"e686e720-e38d-4a1f-f8e3-d731cd0d867e"},"execution_count":null,"outputs":[{"name":"stdout","text":"Model: \"model\"\n__________________________________________________________________________________________________\nLayer (type)                    Output Shape         Param #     Connected to                     \n==================================================================================================\ninput_1 (InputLayer)            [(None, 128, 128, 3) 0                                            \n__________________________________________________________________________________________________\nconv2d (Conv2D)                 (None, 128, 128, 64) 1792        input_1[0][0]                    \n__________________________________________________________________________________________________\nconv2d_1 (Conv2D)               (None, 128, 128, 64) 36928       conv2d[0][0]                     \n__________________________________________________________________________________________________\nmax_pooling2d (MaxPooling2D)    (None, 64, 64, 64)   0           conv2d_1[0][0]                   \n__________________________________________________________________________________________________\nconv2d_2 (Conv2D)               (None, 64, 64, 128)  73856       max_pooling2d[0][0]              \n__________________________________________________________________________________________________\nconv2d_3 (Conv2D)               (None, 64, 64, 128)  147584      conv2d_2[0][0]                   \n__________________________________________________________________________________________________\nmax_pooling2d_1 (MaxPooling2D)  (None, 32, 32, 128)  0           conv2d_3[0][0]                   \n__________________________________________________________________________________________________\nconv2d_4 (Conv2D)               (None, 32, 32, 256)  295168      max_pooling2d_1[0][0]            \n__________________________________________________________________________________________________\nconv2d_5 (Conv2D)               (None, 32, 32, 256)  590080      conv2d_4[0][0]                   \n__________________________________________________________________________________________________\nmax_pooling2d_2 (MaxPooling2D)  (None, 16, 16, 256)  0           conv2d_5[0][0]                   \n__________________________________________________________________________________________________\nconv2d_6 (Conv2D)               (None, 16, 16, 512)  1180160     max_pooling2d_2[0][0]            \n__________________________________________________________________________________________________\nconv2d_7 (Conv2D)               (None, 16, 16, 512)  2359808     conv2d_6[0][0]                   \n__________________________________________________________________________________________________\ndropout (Dropout)               (None, 16, 16, 512)  0           conv2d_7[0][0]                   \n__________________________________________________________________________________________________\nmax_pooling2d_3 (MaxPooling2D)  (None, 8, 8, 512)    0           dropout[0][0]                    \n__________________________________________________________________________________________________\nconv2d_8 (Conv2D)               (None, 8, 8, 1024)   4719616     max_pooling2d_3[0][0]            \n__________________________________________________________________________________________________\nconv2d_9 (Conv2D)               (None, 8, 8, 1024)   9438208     conv2d_8[0][0]                   \n__________________________________________________________________________________________________\ndropout_1 (Dropout)             (None, 8, 8, 1024)   0           conv2d_9[0][0]                   \n__________________________________________________________________________________________________\nup_sampling2d (UpSampling2D)    (None, 16, 16, 1024) 0           dropout_1[0][0]                  \n__________________________________________________________________________________________________\nconv2d_10 (Conv2D)              (None, 16, 16, 512)  2097664     up_sampling2d[0][0]              \n__________________________________________________________________________________________________\nconcatenate (Concatenate)       (None, 16, 16, 1024) 0           dropout[0][0]                    \n                                                                 conv2d_10[0][0]                  \n__________________________________________________________________________________________________\nconv2d_11 (Conv2D)              (None, 16, 16, 512)  4719104     concatenate[0][0]                \n__________________________________________________________________________________________________\nconv2d_12 (Conv2D)              (None, 16, 16, 512)  2359808     conv2d_11[0][0]                  \n__________________________________________________________________________________________________\nup_sampling2d_1 (UpSampling2D)  (None, 32, 32, 512)  0           conv2d_12[0][0]                  \n__________________________________________________________________________________________________\nconv2d_13 (Conv2D)              (None, 32, 32, 256)  524544      up_sampling2d_1[0][0]            \n__________________________________________________________________________________________________\nconcatenate_1 (Concatenate)     (None, 32, 32, 512)  0           conv2d_5[0][0]                   \n                                                                 conv2d_13[0][0]                  \n__________________________________________________________________________________________________\nconv2d_14 (Conv2D)              (None, 32, 32, 256)  1179904     concatenate_1[0][0]              \n__________________________________________________________________________________________________\nconv2d_15 (Conv2D)              (None, 32, 32, 256)  590080      conv2d_14[0][0]                  \n__________________________________________________________________________________________________\nup_sampling2d_2 (UpSampling2D)  (None, 64, 64, 256)  0           conv2d_15[0][0]                  \n__________________________________________________________________________________________________\nconv2d_16 (Conv2D)              (None, 64, 64, 128)  131200      up_sampling2d_2[0][0]            \n__________________________________________________________________________________________________\nconcatenate_2 (Concatenate)     (None, 64, 64, 256)  0           conv2d_3[0][0]                   \n                                                                 conv2d_16[0][0]                  \n__________________________________________________________________________________________________\nconv2d_17 (Conv2D)              (None, 64, 64, 128)  295040      concatenate_2[0][0]              \n__________________________________________________________________________________________________\nconv2d_18 (Conv2D)              (None, 64, 64, 128)  147584      conv2d_17[0][0]                  \n__________________________________________________________________________________________________\nup_sampling2d_3 (UpSampling2D)  (None, 128, 128, 128 0           conv2d_18[0][0]                  \n__________________________________________________________________________________________________\nconv2d_19 (Conv2D)              (None, 128, 128, 64) 32832       up_sampling2d_3[0][0]            \n__________________________________________________________________________________________________\nconcatenate_3 (Concatenate)     (None, 128, 128, 128 0           conv2d_1[0][0]                   \n                                                                 conv2d_19[0][0]                  \n__________________________________________________________________________________________________\nconv2d_20 (Conv2D)              (None, 128, 128, 64) 73792       concatenate_3[0][0]              \n__________________________________________________________________________________________________\nconv2d_21 (Conv2D)              (None, 128, 128, 64) 36928       conv2d_20[0][0]                  \n__________________________________________________________________________________________________\nconv2d_22 (Conv2D)              (None, 128, 128, 3)  1731        conv2d_21[0][0]                  \n==================================================================================================\nTotal params: 31,033,411\nTrainable params: 31,033,411\nNon-trainable params: 0\n__________________________________________________________________________________________________\n","output_type":"stream"}]},{"cell_type":"code","source":["# Fit the autoenc
…
